lab08/best_model.ckpt (torch, 9687 bytes, 18 tensors)

layers.0.weight f4 [7, 8]
0	0x3f17f0dd	0.59351903
1	0x3f982e70	1.1889172
2	0xbf2367d3	-0.638303
3	0x3eabcf3d	0.33556548
4	0x400c70c1	2.194382
5	0xbfc25294	-1.5181451
6	0x3f85ca95	1.0452448
7	0x3f566108	0.8374181
8	0x3f63eed0	0.89036274
9	0x3fa7a734	1.3097901
10	0x3f6f09fc	0.9337461
11	0x3f08a226	0.5337242
12	0x3fa8e7a9	1.3195697
13	0x3f13da91	0.5775538
14	0x3f5859a2	0.8451177
15	0xbfa588f9	-1.2932426
16	0xbfa94ec3	-1.3227161
17	0x3ed23166	0.41053313
18	0xbdbcc83f	-0.092178814
19	0x3f09bfe4	0.53808427
20	0x3fd25475	1.6432024
21	0xbfa3c262	-1.2793696
22	0xbee48274	-0.44630778
23	0x3f40b7c8	0.7528043
24	0x3fad1d2d	1.3524529
25	0xbfa7607b	-1.3076319
26	0xbe7b8ebd	-0.24566169
27	0xbf3b37a3	-0.7313177
28	0x3f1e448f	0.6182336
29	0x3f268d08	0.65058947
30	0xbf694042	-0.91113675
31	0xbfb7ab9d	-1.4349247
32	0x3f9964f0	1.1983929
33	0x3f91e4bd	1.139793
34	0xbe7fef59	-0.24993648
35	0x3f997a38	1.1990423
36	0x3fe8a41a	1.817508
37	0x3e667972	0.22507265
38	0x3eacec36	0.33773965
39	0xbfaaa19e	-1.3330572
40	0x3fcedb4c	1.6160674
41	0x3f4db42a	0.80353034
42	0x3ee7e15f	0.45289132
43	0xbf87245c	-1.0557971
44	0x3f043d30	0.51655865
45	0xbfd1f14e	-1.6401765
46	0xbfb5215d	-1.4150807
47	0x3fb150fa	1.3852837
48	0x3f8b4d7b	1.088302
49	0xbe75d49f	-0.2400689
50	0x3ec83558	0.39103198
51	0xbf83566d	-1.026075
52	0x3f591c7d	0.84809095
53	0x3f5bcca1	0.85859114
54	0xbf85b5ab	-1.0446066
55	0xbf877876	-1.0583637

layers.0.bias f4 [7]
0	0x3fe93fde	1.8222616
1	0x3fde1e32	1.7352965
2	0x3fb825e3	1.4386562
3	0x3fd71c54	1.680552
4	0x3fbb0bc1	1.4612962
5	0x3f8f3db1	1.1190702
6	0x3fb826a1	1.4386789

layers.2.weight f4 [6, 7]
0	0x3ffaf967	1.9607362
1	0x3fbefbc7	1.4920586
2	0x3fa86f9e	1.3159063
3	0x3fd6d7c8	1.6784601
4	0x3fd1e6c4	1.6398549
5	0x3fdd9efe	1.7314146
6	0x3fd7d155	1.6860758
7	0x3fe921d9	1.8213454
8	0x3fcdbe3b	1.6073679
9	0x3fc24a19	1.5178863
10	0x3fbc5819	1.4714385
11	0x3ffe00d6	1.9844005
12	0x3fba62cc	1.45614
13	0x3fda059b	1.7032961
14	0x40027ebc	2.0389853
15	0x3fcfd2bd	1.6236187
16	0x3ffb3076	1.9624164
17	0x3fb1735d	1.3863331
18	0x3febd965	1.8425719
19	0x3fa86a6f	1.3157481
20	0x3fa7be1c	1.3104892
21	0xbfee6908	-1.8625803
22	0xbfc2e4ac	-1.5226035
23	0xbff7ae34	-1.9350038
24	0xbfb3419c	-1.4004397
25	0xbfb14cb6	-1.3851535
26	0xbf9b64d0	-1.214014
27	0xbfdcb4ed	-1.7242714
28	0xbfb08646	-1.3790977
29	0xbfd96fe7	-1.6987275
30	0xbfbea4b0	-1.4894009
31	0xbfe36868	-1.7766237
32	0xbfd2680b	-1.6438001
33	0xbfebebd7	-1.8431348
34	0xbfba407c	-1.4550929
35	0x3fe01041	1.750496
36	0x3fef9f0e	1.8720415
37	0x3f968a07	1.1760873
38	0x3fa21eaa	1.2665608
39	0x3fdd2c21	1.7279092
40	0x3fa99afa	1.325042
41	0x3fb56895	1.4172541

layers.2.bias f4 [6]
0	0x3f9d20ff	1.2275695
1	0x3fc144ff	1.5099181
2	0x3fca2bf7	1.5794667
3	0xbfa7a2f0	-1.30966
4	0xbfd090a6	-1.6294143
5	0x3fa264c0	1.2686996

layers.3.weight f4 [5, 6]
0	0x3fcb8892	1.5901053
1	0x3ff81791	1.9382192
2	0x3fbb3f16	1.4628627
3	0xbfa18a4b	-1.2620329
4	0xbfec2fa0	-1.8452034
5	0x3fd52281	1.6651155
6	0xbfddb561	-1.7320977
7	0xbfe2bcff	-1.7713927
8	0xc00b9c76	-2.1814246
9	0x3fe30e2f	1.7738703
10	0x3fe6ecc3	1.8041004
11	0xbfdfb3b6	-1.7476718
12	0xbfb2e02e	-1.3974664
13	0xc003398f	-2.050388
14	0xbff8bd82	-1.9432833
15	0x3fcb56da	1.588588
16	0x3fbf121e	1.4927404
17	0xbfea914f	-1.8325595
18	0x3fefafd3	1.8725532
19	0x3fd99b26	1.7000473
20	0x40050ca3	2.0788963
21	0xbfc30d82	-1.5238497
22	0xbfedfaff	-1.8592223
23	0x3fc2bafa	1.5213311
24	0xbfd4462b	-1.6583914
25	0xbfe21e11	-1.7665426
26	0xbffce8e1	-1.9758569
27	0x3fce8074	1.6132951
28	0x3fc14eef	1.5102214
29	0xbfae57f4	-1.3620591

layers.3.bias f4 [5]
0	0x3fd45712	1.6589072
1	0xbfc35c64	-1.526257
2	0xbfcb8ab7	-1.5901707
3	0x3f99f9d9	1.2029372
4	0xbfa9e2cc	-1.3272338

layers.4.weight f4 [3, 5]
0	0xbfd4d212	-1.6626608
1	0x3ff0c0de	1.8808858
2	0x3fbfc939	1.4983283
3	0xbfd2746e	-1.6441782
4	0x3ffa1c66	1.9539917
5	0xc0079165	-2.1182492
6	0x3fe07053	1.7534279
7	0x3fee6fd3	1.8627876
8	0xbfd3363a	-1.6500924
9	0x3fdabe91	1.7089406
10	0x3fd16c9b	1.6361269
11	0xc00c4e37	-2.1922739
12	0xc00b6cf4	-2.178525
13	0x3ffd5bf5	1.9793688
14	0xbffe6ee9	-1.9877597

layers.4.bias f4 [3]
0	0xbf9147fb	-1.1350092
1	0xbf8dbd4f	-1.1073397
2	0x3faf7a9d	1.3709294

layers.5.weight f4 [1, 3]
0	0xbff9b2bf	-1.9507674
1	0xbffab7cf	-1.9587344
2	0x3fe5f8da	1.7966568

square_avg f4 [7, 8]
0	0x453bc9da	3004.6157
1	0x44850403	1064.1254
2	0x45528cfa	3368.811
3	0x4505e332	2142.1997
4	0x46c3f07e	25080.246
5	0x44bdde23	1518.9418
6	0x4503f4eb	2111.3074
7	0x45b24314	5704.385
8	0x4525780f	2647.5037
9	0x446b71b5	941.7767
10	0x45484ac2	3204.6724
11	0x44de836d	1780.107
12	0x46929404	18762.008
13	0x44b47389	1443.6105
14	0x44c1e55b	1551.1674
15	0x45898ec4	4401.8457
16	0x4502bc57	2091.7712
17	0x44285127	673.268
18	0x451efce2	2543.8052
19	0x44b8265c	1473.1987
20	0x468cce9a	18023.3
21	0x447668fd	985.64044
22	0x4493011d	1176.0348
23	0x4591b599	4662.6997
24	0x44f95f75	1994.983
25	0x451094e9	2313.307
26	0x4514fe34	2383.8877
27	0x445cd9fe	883.4061
28	0x46023606	8333.506
29	0x4496bd6a	1205.9192
30	0x4391a30e	291.27386
31	0x4428ef2d	675.7371
32	0x45334850	2868.5195
33	0x4483105c	1048.5112
34	0x45231917	2609.568
35	0x44e480d4	1828.0259
36	0x469e9d5a	20302.676
37	0x44997a67	1227.8251
38	0x44b3d724	1438.7231
39	0x45916a4c	4653.287
40	0x450592d1	2137.176
41	0x442a2d50	680.708
42	0x452bc345	2748.2043
43	0x44b550c0	1450.5234
44	0x460b4264	8912.598
45	0x43f06bb9	480.84158
46	0x447ee891	1019.63385
47	0x45876079	4332.059
48	0x4505de0d	2141.8782
49	0x45178863	2424.5242
50	0x4520d902	2573.563
51	0x448e2694	1137.2056
52	0x462a229a	10888.65
53	0x449a3eb6	1233.9597
54	0x43abe83b	343.8143
55	0x4422442c	649.0652

square_avg f4 [7]
0	0x45b634b3	5830.5874
1	0x45a8a70f	5396.8823
2	0x4574f91f	3919.57
3	0x4561668f	3606.41
4	0x459b5c7d	4971.561
5	0x452761e0	2678.1172
6	0x4587aab4	4341.338

square_avg f4 [6, 7]
0	0x44cba7e5	1629.2467
1	0x4477e76e	991.6161
2	0x447f2d67	1020.7094
3	0x43df2269	446.26883
4	0x44a22db9	1297.4288
5	0x4404f4a7	531.8227
6	0x43df7c8e	446.97308
7	0x45037668	2103.4004
8	0x449fb301	1277.5939
9	0x44a2d375	1302.608
10	0x44101133	576.26874
11	0x44cfda6e	1662.8259
12	0x44299787	678.3676
13	0x440f228e	572.5399
14	0x45116d23	2326.821
15	0x44b09290	1412.5801
16	0x44b36117	1435.034
17	0x441f6524	637.5803
18	0x44e5745f	1835.6366
19	0x443b0031	748.003
20	0x441dec26	631.6898
21	0x44afe058	1407.0107
22	0x44566562	857.5841
23	0x445e2d9b	888.7126
24	0x43c09585	385.16812
25	0x448cdc53	1126.8851
26	0x43e833c2	464.40436
27	0x43c1f9d0	387.95166
28	0x44dbbfa2	1757.9885
29	0x4485acf2	1069.4045
30	0x44892223	1097.0668
31	0x43f0d1cd	481.63907
32	0x44ae8cdd	1396.402
33	0x440ec2bf	571.0429
34	0x43f0a2fd	481.27335
35	0x44c34101	1562.0314
36	0x446db25b	950.7868
37	0x44756d0c	981.70386
38	0x43d5ce20	427.61035
39	0x449bc0a7	1246.0204
40	0x4400034d	512.0516
41	0x43d67f1e	428.9931

square_avg f4 [6]
0	0x42ad21eb	86.566246
1	0x42e36c8a	113.71199
2	0x42fd2dfd	126.58982
3	0x4293c778	73.88959
4	0x42bbbb95	93.86637
5	0x42a560ae	82.68883

square_avg f4 [5, 6]
0	0x44ab9fb8	1372.9912
1	0x44b8ba3a	1477.8196
2	0x44c0f1cb	1543.556
3	0x44a275d4	1299.6821
4	0x44a107de	1288.2458
5	0x44973727	1209.7235
6	0x44c869be	1603.3044
7	0x44d7bc50	1725.8848
8	0x44e156c2	1802.7112
9	0x44bd9775	1516.733
10	0x44bc0793	1504.2367
11	0x44b07af0	1411.8418
12	0x44b166c1	1419.211
13	0x44bef2e4	1527.5903
14	0x44c771b0	1595.5527
15	0x44a7e930	1343.2871
16	0x44a6730f	1331.5956
17	0x449c4a50	1250.3223
18	0x449f0eae	1272.4587
19	0x44ab3185	1369.5475
20	0x44b2ce54	1430.4478
21	0x44969b97	1204.8622
22	0x44953e9b	1193.9564
23	0x448c2dea	1121.4348
24	0x44baf969	1495.7941
25	0x44c94235	1610.069
26	0x44d236c9	1681.712
27	0x44b0f065	1415.5123
28	0x44af6d86	1403.4226
29	0x44a4b27f	1317.578

square_avg f4 [5]
0	0x3ffb1863	1.9616817
1	0x4016159c	2.345069
2	0x40024084	2.0351877
3	0x3fe61a26	1.797673
4	0x400a3e69	2.1600592

square_avg f4 [3, 5]
0	0x458e76de	4558.8584
1	0x45bd4cfd	6057.6235
2	0x45a26e6f	5197.804
3	0x45ab1047	5474.0347
4	0x45940680	4736.8125
5	0x45900662	4608.798
6	0x45bf64d5	6124.604
7	0x45a437db	5254.982
8	0x45acf28e	5534.3193
9	0x4595a623	4788.767
10	0x456d4007	3796.0017
11	0x459d83ea	5040.4893
12	0x4587359a	4326.7
13	0x458e6209	4556.2544
14	0x45767cdb	3943.8035

square_avg f4 [3]
0	0x3e088cf7	0.13335024
1	0x3e0a8df9	0.13530721
2	0x3dd78835	0.10524026

square_avg f4 [1, 3]
0	0x47c0ff86	98815.05
1	0x47d7ad5c	110426.72
2	0x4806e304	138124.06
