lab08/ensemble_models.ckpt (torch, 9687 bytes, 18 tensors)

layers.0.weight f4 [7, 8]
00000000: 3abf 853e b135 5f3f 3902 f8be 3ea1 6a3f
00000010: 5771 9f3f e84b c0bf 42c2 6f3f c7b1 30bf
00000020: b5ef b13f 8aaa 893d dc2a 06bf 5fb5 673f
00000030: 5a5e d53f 25e9 953f 1e31 90bf 9167 3d3f
00000040: 7792 873f a8a0 b23f d430 11bf 71f7 fc3e
00000050: af4c 983f 037e 91bf 2096 55bf ca6e 5f3f
00000060: bc4d 953f 0cd7 8ebd 8176 123f bf30 993d
00000070: b3d1 b43f 28a0 f43e e19e 313f cc6a cbbf
00000080: aa0e 813f b3bf da3e f8a2 75be 3854 9a3e
00000090: dcce b83f 0455 a5bf fe26 483f abb5 203f
000000a0: 7009 853f a554 833f 2c9e 143e 08c8 6e3e
000000b0: 921a f63f 581d 0a3f 6f2c 9cbf 7cb5 183f
000000c0: 0b85 c13f 7098 253f 09f2 5abf 1b03 de3e
000000d0: a21f a23f f18e 963f 9013 233f 93bb dbbf
0.26122457 0.871913 -0.48439196 0.91652286 1.2456464 -1.5023165 0.9365579 -0.69021267
1.3901278 0.06721981 -0.5240915 0.90511125 1.6669419 1.1711775 -1.1264989 0.73986155
1.0591573 1.3955278 -0.5671513 0.49407533 1.1898402 -1.1366581 -0.834322 0.87278426
1.1664348 -0.06974611 0.5721207 0.07480001 1.4126495 0.4777844 0.69383055 -1.5891967
1.00826 0.4272438 -0.23987949 0.3014238 1.4438128 -1.291657 0.781845 0.62777203
1.0393505 1.0260206 0.14513463 0.23318493 1.9226859 0.53951025 -1.220106 0.59651923
1.5118726 0.64685726 -0.85525566 0.43361744 1.2665904 1.1762372 0.63701725 -1.7166618

layers.0.bias f4 [7]
00000000: 5c90 a93f 08a8 cf3f c456 f83f 917b d13f
00000010: 1ecf ab3f 14ae ed3f 15e8 b63f
1.324718 1.6223154 1.9401479 1.6365834 1.3422582 1.856875 1.4289576

layers.2.weight f4 [6, 7]
00000000: 870d bfbf c89e e4bf 8cc5 c9bf 987b b1bf
00000010: e91a a1bf 456f e9bf f422 aebf 6f27 9dbf
00000020: 932e f1bf 93ee e6bf 8cbb acbf 662c a5bf
00000030: 1bae f8bf 05e2 d8bf 51db 7dbf 9fd0 89bf
00000040: 57d3 bbbf 4f56 b5bf 70c8 71bf 68cf c9bf
00000050: 583e aabf c405 a93f f651 d23f 7da3 be3f
00000060: 2ca3 9b3f 5bc3 b43f 0bac f53f 2711 db3f
00000070: ae7c c5bf d5bb c9bf 712b efbf fcf5 edbf
00000080: a69b cfbf 2467 d8bf 6fd1 cdbf 788a b6bf
00000090: b859 e8bf 01a6 d3bf 1f25 a6bf efb8 cbbf
000000a0: 7a43 a3bf 9d26 cabf
-1.4926003 -1.7860956 -1.5763412 -1.3865843 -1.2586337 -1.8237082 -1.3604417 -1.2277659
-1.8842338 -1.8041557 -1.3494735 -1.2904174 -1.9428133 -1.6943976 -0.99162775 -1.0766791
-1.4673871 -1.4166964 -0.9444647 -1.576642 -1.3300276 1.3204885 1.6431262 1.4893643
1.2159171 1.4122118 1.9193128 1.711461 -1.5428674 -1.5760447 -1.8685132 -1.8590693
-1.6219375 -1.6906476 -1.6079539 -1.4261007 -1.815238 -1.6535035 -1.2980078 -1.5915812
-1.2754967 -1.5793034

layers.2.bias f4 [6]
00000000: 138b 99bf 87a9 d6bf ca95 61bf 24b1 f33f
00000010: d39d ddbf 1867 bfbf
-1.1995567 -1.6770486 -0.88119185 1.9038434 -1.7313789 -1.4953337

layers.3.weight f4 [5, 6]
00000000: af4c d8bf fcaa 04c0 05cb 53bf 3d0f e23f
00000010: f3ba fbbf 2a26 e8bf 2cb0 bf3f 67e9 ae3f
00000020: 8476 af3f d1f1 dabf a4e0 fb3f 7ce0 b93f
00000030: bc3a d5bf 075b b1bf a1b1 c9bf ec98 ed3f
00000040: a537 fcbf 35d0 b9bf b810 b33f 5c64 e73f
00000050: e6f4 a13f e8d0 cfbf 79e0 d73f a3a0 a13f
00000060: 33fb bdbf 1ed2 03c0 bf0f a8bf e532 fd3f
00000070: de6d eabf 958e babf
-1.6898402 -2.072936 -0.8273166 1.76609 -1.9666427 -1.8136647 1.4975638 1.3664979
1.3708043 -1.7105047 1.967793 1.4521632 -1.6658549 -1.3855904 -1.5757333 1.8562293
-1.9704481 -1.4516665 1.3989477 1.8077502 1.2652862 -1.6235628 1.6865379 1.2627147
-1.4842285 -2.0596995 -1.3129805 1.9781157 -1.8314779 -1.4574763

layers.3.bias f4 [5]
00000000: 4c6d da3f c877 d5bf ed7e b53f 2d58 d8bf
00000010: 9136 823f
1.7064605 -1.6677179 1.417936 -1.6901909 1.0172902

layers.4.weight f4 [3, 5]
00000000: ad01 de3f e2d0 d7bf 43c2 933f 8c31 fbbf
00000010: 8d70 e43f 8cda b73f 1951 bcbf c262 cf3f
00000020: 5caf a6bf bbea db3f 669c 00c0 bc1b 0340
00000030: 2b8d dabf 4fe8 0840 2047 cdbf
1.7344261 -1.6860621 1.1543659 -1.9624496 1.7846848 1.436357 -1.4712249 1.6202013
-1.3022265 1.7181009 -2.0095458 2.0485678 -1.7074331 2.139179 -1.6037331

layers.4.bias f4 [3]
00000000: aebb 5d3f 4111 b43f 2942 55bf
0.866145 1.4067765 -0.8330408

layers.5.weight f4 [1, 3]
00000000: e822 d03f cb32 0e40 35fa ecbf
1.6260653 2.2218502 -1.8513857

square_avg f4 [7, 8]
00000000: d51b a945 f9cb 5f44 020d 7145 c749 5945
00000010: 1448 0446 1e85 8444 37ca a545 2b69 ab44
00000020: c612 7945 abee 1f45 0c2e 6745 adf1 9545
00000030: 6ac7 3b46 c842 b844 7bb8 a745 4a54 4345
00000040: 7925 e345 adf6 a644 b3a9 ae45 d798 bc45
00000050: d706 3c46 a64a d944 2783 eb45 671f 1545
00000060: 5a05 c745 571d aa44 8bdc 9145 f8c5 6745
00000070: 8994 f845 d523 e544 8603 c645 309a a544
00000080: 1c58 b145 16db 7144 4479 8345 9f34 7f45
00000090: e59f 0346 ec2d 9d44 095b ae45 4452 c344
000000a0: 9226 9245 6e76 3545 a2fe 7845 0b8f af45
000000b0: 0a74 6146 8a0a a444 5c94 c445 636c 5045
000000c0: 3056 9545 26cb 1745 cf21 7345 5d74 5045
000000d0: cc2f 2046 2822 e044 5a2f b545 f4ba 2745
5411.479 895.1871 3856.813 3476.611 8466.02 1060.1599 5305.277 1371.2865
3985.1733 2558.9167 3698.878 4798.2095 12017.854 1474.0869 5367.06 3125.268
7268.684 1335.7086 5589.2124 6035.105 12033.71 1738.3328 7536.394 2385.9626
6368.669 1360.9169 4667.568 3708.373 7954.567 1833.1198 6336.4404 1324.8184
5675.0137 967.4232 4207.158 4083.2888 8423.974 1257.435 5579.3794 1562.5708
4676.8213 2903.4019 3983.9146 5617.8804 14429.01 1312.3293 6290.545 3334.7742
4778.7734 2428.6968 3890.113 3335.2727 10251.949 1793.0674 5797.919 2683.6846

square_avg f4 [7]
00000000: 4bb2 5f45 4c16 0a46 26d9 c145 b5ac 9e45
00000010: 4cc9 7b45 fc7e 1146 040f d845
3579.1433 8837.574 6203.1436 5077.5884 4028.581 9311.746 6913.877

square_avg f4 [6, 7]
00000000: 0c18 7e44 e124 1c44 2a4a 4e44 33f4 b044
00000010: 3aec 7644 914d 8644 e6ae 9344 a503 a544
00000020: 5329 4f44 4dae 8744 115c e544 6887 a044
00000030: 1628 b144 59e5 bf44 7e47 2544 4efb c143
00000040: a09b 0244 d134 6744 8135 2044 87ec 2844
00000050: 8ffc 3f44 10af ac44 d437 5944 de29 8e44
00000060: 90f8 ef44 f904 a844 b2ab b944 9dd1 c844
00000070: 97e8 c144 9446 7644 0991 a044 0b9e 0645
00000080: 16c8 bc44 ef02 d244 428c e144 56d4 6b44
00000090: 1162 1044 5a0e 3f44 c84e a444 d928 6544
000000a0: 05b0 7844 470f 8944
1016.37573 624.57623 825.1588 1415.6312 987.69104 1074.424 1181.4656 1320.1139
828.6457 1085.4469 1834.8771 1284.2314 1417.2527 1535.1671 661.11707 387.96332
522.43164 924.82526 640.836 675.69574 767.9462 1381.4707 868.8723 1137.3083
1919.7676 1344.1554 1485.3655 1606.5504 1551.2684 985.1028 1284.5323 2153.8777
1510.2527 1680.0917 1804.383 943.31775 577.5323 764.22424 1314.4619 916.63824
994.7503 1096.4774

square_avg f4 [6]
00000000: 5ce4 e642 0b89 1843 fd58 9142 4fcf 1f43
00000010: 3abf 3443 188a d542
115.446014 152.53532 72.673805 159.8098 180.74698 106.769714

square_avg f4 [5, 6]
00000000: 6f62 ec44 f7ed 0645 5d26 9d44 0675 fc44
00000010: 7731 1a45 3ec7 ed44 1aa1 ef44 dcc5 0845
00000020: 4d55 9f44 1fea ff44 324e 1c45 c50c f144
00000030: a6ed b644 b19a d044 16f6 7344 0e45 c344
00000040: 868d ee44 831c b844 cebd fb44 dcb0 0f45
00000050: 075e a744 0f6d 0645 8234 2445 153a fd44
00000060: a73b ea44 b6b3 0545 0db8 9b44 2829 fa44
00000070: a9ca 1845 849d eb44
1891.076 2158.8728 1257.1989 2019.657 2467.0916 1902.2263 1917.0344 2188.3662
1274.6656 2047.3163 2500.8872 1928.399 1463.4265 1668.8341 975.8451 1562.158
1908.4226 1472.891 2013.9314 2299.0537 1338.9384 2150.8162 2627.2817 2025.8151
1873.8641 2139.232 1245.7516 2001.2861 2444.6663 1884.9224

square_avg f4 [5]
00000000: 64e4 2840 20e9 2a40 e4fe fe3f fc89 3340
00000010: 2173 2740
2.6389399 2.6704788 1.9921536 2.805297 2.616402

square_avg f4 [3, 5]
00000000: 84ec b245 72a9 9245 9545 a345 3888 8845
00000010: a7bf ad45 16d0 2e46 5be7 0e46 3830 1f46
00000020: 73f7 0446 2f9f 2946 717c ed45 b464 c245
00000030: bf7a d845 8ceb b445 0386 e645
5725.5645 4693.1807 5224.6978 4369.0273 5559.9565 11188.021 9145.839 10188.055
8509.862 10855.796 7599.555 6220.588 6927.3433 5789.4434 7376.7515

square_avg f4 [3]
00000000: 129f d03d 0a6f 773e f39f 183e
0.1018659 0.24163452 0.14904766

square_avg f4 [1, 3]
00000000: f058 0248 f0f8 d647 9aac 2d48
133475.75 110065.875 177842.4
